…
          "base_uri": "https://localhost:8080/"
        },
        "id": "ARDorzM-lI9n",
        "outputId": "d3719848-128a-4406-b187-ab86020f5ce2"
      },
      "outputs": [
        {
          "output_type": "stream",
          "name": "stdout",
          "text": [
            "python3: can't open file '/path/to/vovnet-detectron2/train_net.py': [Errno 2] No such file or directory\n",
            "\u001b[32m[07/26 20:06:33 d2.engine.defaults]: \u001b[0mModel:\n",
            "GeneralizedRCNN(\n",
            "  (backbone): ResNet(\n",
            "    (stem): BasicStem(\n",
            "      (conv1): Conv2d(\n",
            "        3, 64, kernel_size=(7, 7), stride=(2, 2), padding=(3, 3), bias=False\n",
            "        (norm): FrozenBatchNorm2d(num_features=64, eps=1e-05)\n",
            "      )\n",
            "    )\n",
            "    (res2): Sequential(\n",
            "      (0): BottleneckBlock(\n",
            "        (shortcut): Conv2d(\n",
            "          64, 256, kernel_size=(1, 1), stride=(1, 1), bias=False\n",
            "          (norm): FrozenBatchNorm2d(num_features=256, eps=1e-05)\n",
            "        )\n",
            "        (conv1): Conv2d(\n",
            "          64, 64, kernel_size=(1, 1), stride=(1, 1), bias=False\n",
            "          (norm): FrozenBatchNorm2d(num_features=64, eps=1e-05)\n",
            "        )\n",
            "        (conv2): Conv2d(\n",
            "          64, 64, kernel_size=(3, 3), stride=(1, 1), padding=(1, 1), bias=False\n",
            "          (norm): FrozenBatchNorm2d(num_features=64, eps=1e-05)\n",
            "        )\n",
            "        (conv3): Conv2d(\n",
            "          64, 256, kernel_size=(1, 1), stride=(1, 1), bias=False\n",
            "          (norm): FrozenBatchNorm2d(num_features=256, eps=1e-05)\n",
            "        )\n",
            "      )\n",
            "      (1): BottleneckBlock(\n",
            "        (conv1): Conv2d(\n",
            "          256, 64, kernel_size=(1, 1), stride=(1, 1), bias=False\n",
            "          (norm): FrozenBatchNorm2d(num_features=64, eps=1e-05)\n",
            "        )\n",
            "        (conv2): Conv2d(\n",
            "          64, 64, kernel_size=(3, 3), stride=(1, 1), padding=(1, 1), bias=False\n",
            "          (norm): FrozenBatchNorm2d(num_features=64, eps=1e-05)\n",
            "        )\n",
            "        (conv3): Conv2d(\n",
            "          64, 256, kernel_size=(1, 1), stride=(1, 1), bias=False\n",
            "          (norm): FrozenBatchNorm2d(num_features=256, eps=1e-05)\n",
            "        )\n",
            "      )\n",
            "      (2): BottleneckBlock(\n",
            "        (conv1): Conv2d(\n",
            "          256, 64, kernel_size=(1, 1), stride=(1, 1), bias=False\n",
            "          (norm): FrozenBatchNorm2d(num_features=64, eps=1e-05)\n",
            "        )\n",
            "        (conv2): Conv2d(\n",
            "          64, 64, kernel_size=(3, 3), stride=(1, 1), padding=(1, 1), bias=False\n",
            "          (norm): FrozenBatchNorm2d(num_features=64, eps=1e-05)\n",
            "        )\n",
            "        (conv3): Conv2d(\n",
            "          64, 256, kernel_size=(1, 1), stride=(1, 1), bias=False\n",
            "          (norm): FrozenBatchNorm2d(num_features=256, eps=1e-05)\n",
            "        )\n",
            "      )\n",
            "    )\n",
            "    (res3): Sequential(\n",
            "      (0): BottleneckBlock(\n",
            "        (shortcut): Conv2d(\n",
            "          256, 512, kernel_size=(1, 1), stride=(2, 2), bias=False\n",
            "          (norm): FrozenBatchNorm2d(num_features=512, eps=1e-05)\n",
            "        )\n",
            "        (conv1): Conv2d(\n",
            "          256, 128, kernel_size=(1, 1), stride=(2, 2), bias=False\n",
            "          (norm): FrozenBatchNorm2d(num_features=128, eps=1e-05)\n",
            "        )\n",
            "        (conv2): Conv2d(\n",
            "          128, 128, kernel_size=(3, 3), stride=(1, 1), padding=(1, 1), bias=False\n",
            "          (norm): FrozenBatchNorm2d(num_features=128, eps=1e-05)\n",
            "        )\n",
            "        (conv3): Conv2d(\n",
            "          128, 512, kernel_size=(1, 1), stride=(1, 1), bias=False\n",
            "          (norm): FrozenBatchNorm2d(num_features=512, eps=1e-05)\n",
            "        )\n",
            "      )\n",
            "      (1): BottleneckBlock(\n",
            "        (conv1): Conv2d(\n",
            "          512, 128, kernel_size=(1, 1), stride=(1, 1), bias=False\n",
            "          (norm): FrozenBatchNorm2d(num_features=128, eps=1e-05)\n",
            "        )\n",
            "        (conv2): Conv2d(\n",
            "          128, 128, kernel_size=(3, 3), stride=(1, 1), padding=(1, 1), bias=False\n",
            "          (norm): FrozenBatchNorm2d(num_features=128, eps=1e-05)\n",
            "        )\n",
            "        (conv3): Conv2d(\n",
            "          128, 512, kernel_size=(1, 1), stride=(1, 1), bias=False\n",
            "          (norm): FrozenBatchNorm2d(num_features=512, eps=1e-05)\n",
            "        )\n",
            "      )\n",
            "      (2): BottleneckBlock(\n",
            "        (conv1): Conv2d(\n",
            "          512, 128, kernel_size=(1, 1), stride=(1, 1), bias=False\n",
            "          (norm): FrozenBatchNorm2d(num_features=128, eps=1e-05)\n",
            "        )\n",
            "        (conv2): Conv2d(\n",
            "          128, 128, kernel_size=(3, 3), stride=(1, 1), padding=(1, 1), bias=False\n",
            "          (norm): FrozenBatchNorm2d(num_features=128, eps=1e-05)\n",
            "        )\n",
            "        (conv3): Conv2d(\n",
            "          128, 512, kernel_size=(1, 1), stride=(1, 1), bias=False\n",
            "          (norm): FrozenBatchNorm2d(num_features=512, eps=1e-05)\n",
            "        )\n",
            "      )\n",
            "      (3): BottleneckBlock(\n",
            "        (conv1): Conv2d(\n",
            "          512, 128, kernel_size=(1, 1), stride=(1, 1), bias=False\n",
            "          (norm): FrozenBatchNorm2d(num_features=128, eps=1e-05)\n",
            "        )\n",
            "        (conv2): Conv2d(\n",
            "          128, 128, kernel_size=(3, 3), stride=(1, 1), padding=(1, 1), bias=False\n",
            "          (norm): FrozenBatchNorm2d(num_features=128, eps=1e-05)\n",
            "        )\n",
            "        (conv3): Conv2d(\n",
            "          128, 512, kernel_size=(1, 1), stride=(1, 1), bias=False\n",
            "          (norm): FrozenBatchNorm2d(num_features=512, eps=1e-05)\n",
            "        )\n",
            "      )\n",
            "    )\n",
            "    (res4): Sequential(\n",
            "      (0): BottleneckBlock(\n",
            "        (shortcut): Conv2d(\n",
            "          512, 1024, kernel_size=(1, 1), stride=(2, 2), bias=False\n",
            "          (norm): FrozenBatchNorm2d(num_features=1024, eps=1e-05)\n",
            "        )\n",
            "        (conv1): Conv2d(\n",
            "          512, 256, kernel_size=(1, 1), stride=(2, 2), bias=False\n",
            "          (norm): FrozenBatchNorm2d(num_features=256, eps=1e-05)\n",
            "        )\n",
            "        (conv2): Conv2d(\n",
            "          256, 256, kernel_size=(3, 3), stride=(1, 1), padding=(1, 1), bias=False\n",
            "          (norm): FrozenBatchNorm2d(num_features=256, eps=1e-05)\n",
            "        )\n",
            "        (conv3): Conv2d(\n",
            "          256, 1024, kernel_size=(1, 1), stride=(1, 1), bias=False\n",
            "          (norm): FrozenBatchNorm2d(num_features=1024, eps=1e-05)\n",
            "        )\n",
            "      )\n",
            "      (1): BottleneckBlock(\n",
            "        (conv1): Conv2d(\n",
            "          1024, 256, kernel_size=(1, 1), stride=(1, 1), bias=False\n",
            "          (norm): FrozenBatchNorm2d(num_features=256, eps=1e-05)\n",
            "        )\n",
            "        (conv2): Conv2d(\n",
            "          256, 256, kernel_size=(3, 3), stride=(1, 1), padding=(1, 1), bias=False\n",
            "          (norm): FrozenBatchNorm2d(num_features=256, eps=1e-05)\n",
            "        )\n",
            "        (conv3): Conv2d(\n",
            "          256, 1024, kernel_size=(1, 1), stride=(1, 1), bias=False\n",
            "          (norm): FrozenBatchNorm2d(num_features=1024, eps=1e-05)\n",
            "        )\n",
            "      )\n",
            "      (2): BottleneckBlock(\n",
            "        (conv1): Conv2d(\n",
            "          1024, 256, kernel_size=(1, 1), stride=(1, 1), bias=False\n",
            "          (norm): FrozenBatchNorm2d(num_features=256, eps=1e-05)\n",
            "        )\n",
            "        (conv2): Conv2d(\n",
            "          256, 256, kernel_size=(3, 3), stride=(1, 1), padding=(1, 1), bias=False\n",
            "          (norm): FrozenBatchNorm2d(num_features=256, eps=1e-05)\n",
            "        )\n",
            "        (conv3): Conv2d(\n",
            "          256, 1024, kernel_size=(1, 1), stride=(1, 1), bias=False\n",
            "          (norm): FrozenBatchNorm2d(num_features=1024, eps=1e-05)\n",
            "        )\n",
            "      )\n",
            "      (3): BottleneckBlock(\n",
            "        (conv1): Conv2d(\n",
            "          1024, 256, kernel_size=(1, 1), stride=(1, 1), bias=False\n",
            "          (norm): FrozenBatchNorm2d(num_features=256, eps=1e-05)\n",
            "        )\n",
            "        (conv2): Conv2d(\n",
            "          256, 256, kernel_size=(3, 3), stride=(1, 1), padding=(1, 1), bias=False\n",
            "          (norm): FrozenBatchNorm2d(num_features=256, eps=1e-05)\n",
            "        )\n",
            "        (conv3): Conv2d(\n",
            "          256, 1024, kernel_size=(1, 1), stride=(1, 1), bias=False\n",
            "          (norm): FrozenBatchNorm2d(num_features=1024, eps=1e-05)\n",
            "        )\n",
            "      )\n",
            "      (4): BottleneckBlock(\n",
            "        (conv1): Conv2d(\n",
            "          1024, 256, kernel_size=(1, 1), stride=(1, 1), bias=False\n",
            "          (norm): FrozenBatchNorm2d(num_features=256, eps=1e-05)\n",
            "        )\n",
            "        (conv2): Conv2d(\n",
            "          256, 256, kernel_size=(3, 3), stride=(1, 1), padding=(1, 1), bias=False\n",
            "          (norm): FrozenBatchNorm2d(num_features=256, eps=1e-05)\n",
            "        )\n",
            "        (conv3): Conv2d(\n",
            "          256, 1024, kernel_size=(1, 1), stride=(1, 1), bias=False\n",
            "          (norm): FrozenBatchNorm2d(num_features=1024, eps=1e-05)\n",
            "        )\n",
            "      )\n",
            "      (5): BottleneckBlock(\n",
            "        (conv1): Conv2d(\n",
            "          1024, 256, kernel_size=(1, 1), stride=(1, 1), bias=False\n",
            "          (norm): FrozenBatchNorm2d(num_features=256, eps=1e-05)\n",
            "        )\n",
            "        (conv2): Conv2d(\n",
            "          256, 256, kernel_size=(3, 3), stride=(1, 1), padding=(1, 1), bias=False\n",
            "          (norm): FrozenBatchNorm2d(num_features=256, eps=1e-05)\n",
            "        )\n",
            "        (conv3): Conv2d(\n",
            "          256, 1024, kernel_size=(1, 1), stride=(1, 1), bias=False\n",
            "          (norm): FrozenBatchNorm2d(num_features=1024, eps=1e-05)\n",
            "        )\n",
            "      )\n",
            "    )\n",
            "  )\n",
            "  (proposal_generator): RPN(\n",
            "    (rpn_head): StandardRPNHead(\n",
            "      (conv): Conv2d(\n",
            "        1024, 1024, kernel_size=(3, 3), stride=(1, 1), padding=(1, 1)\n",
            "        (activation): ReLU()\n",
            "      )\n",
            "      (objectness_logits): Conv2d(1024, 15, kernel_size=(1, 1), stride=(1, 1))\n",
            "      (anchor_deltas): Conv2d(1024, 60, kernel_size=(1, 1), stride=(1, 1))\n",
            "    )\n",
            "    (anchor_generator): DefaultAnchorGenerator(\n",
            "      (cell_anchors): BufferList()\n",
            "    )\n",
            "  )\n",
            "  (roi_heads): Res5ROIHeads(\n",
            "    (pooler): ROIPooler(\n",
            "      (level_poolers): ModuleList(\n",
            "        (0): ROIAlign(output_size=(14, 14), spatial_scale=0.0625, sampling_ratio=0, aligned=True)\n",
            "      )\n",
            "    )\n",
            "    (res5): Sequential(\n",
            "      (0): BottleneckBlock(\n",
            "        (shortcut): Conv2d(\n",
            "          1024, 2048, kernel_size=(1, 1), stride=(2, 2), bias=False\n",
            "          (norm): FrozenBatchNorm2d(num_features=2048, eps=1e-05)\n",
            "        )\n",
            "        (conv1): Conv2d(\n",
            "          1024, 512, kernel_size=(1, 1), stride=(2, 2), bias=False\n",
            "          (norm): FrozenBatchNorm2d(num_features=512, eps=1e-05)\n",
            "        )\n",
            "        (conv2): Conv2d(\n",
            "          512, 512, kernel_size=(3, 3), stride=(1, 1), padding=(1, 1), bias=False\n",
            "          (norm): FrozenBatchNorm2d(num_features=512, eps=1e-05)\n",
            "        )\n",
            "        (conv3): Conv2d(\n",
            "          512, 2048, kernel_size=(1, 1), stride=(1, 1), bias=False\n",
            "          (norm): FrozenBatchNorm2d(num_features=2048, eps=1e-05)\n",
            "        )\n",
            "      )\n",
            "      (1): BottleneckBlock(\n",
            "        (conv1): Conv2d(\n",
            "          2048, 512, kernel_size=(1, 1), stride=(1, 1), bias=False\n",
            "          (norm): FrozenBatchNorm2d(num_features=512, eps=1e-05)\n",
            "        )\n",
            "        (conv2): Conv2d(\n",
            "          512, 512, kernel_size=(3, 3), stride=(1, 1), padding=(1, 1), bias=False\n",
            "          (norm): FrozenBatchNorm2d(num_features=512, eps=1e-05)\n",
            "        )\n",
            "        (conv3): Conv2d(\n",
            "          512, 2048, kernel_size=(1, 1), stride=(1, 1), bias=False\n",
            "          (norm): FrozenBatchNorm2d(num_features=2048, eps=1e-05)\n",
            "        )\n",
            "      )\n",
            "      (2): BottleneckBlock(\n",
            "        (conv1): Conv2d(\n",
            "          2048, 512, kernel_size=(1, 1), stride=(1, 1), bias=False\n",
            "          (norm): FrozenBatchNorm2d(num_features=512, eps=1e-05)\n",
            "        )\n",
            "        (conv2): Conv2d(\n",
            "          512, 512, kernel_size=(3, 3), stride=(1, 1), padding=(1, 1), bias=False\n",
            "          (norm): FrozenBatchNorm2d(num_features=512, eps=1e-05)\n",
            "        )\n",
            "        (conv3): Conv2d(\n",
            "          512, 2048, kernel_size=(1, 1), stride=(1, 1), bias=False\n",
            "          (norm): FrozenBatchNorm2d(num_features=2048, eps=1e-05)\n",
            "        )\n",
            "      )\n",
            "    )\n",
            "    (box_predictor): FastRCNNOutputLayers(\n",
            "      (cls_score): Linear(in_features=2048, out_features=2, bias=True)\n",
            "      (bbox_pred): Linear(in_features=2048, out_features=4, bias=True)\n",
            "    )\n",
            "  )\n",
            ")\n",
            "\u001b[32m[07/26 20:18:10 d2.data.build]: \u001b[0mRemoved 2537 images with no usable annotations. 8205 images left.\n",
            "\u001b[32m[07/26 20:18:10 d2.data.build]: \u001b[0mDistribution of instances among all 1 categories:\n",
            "\u001b[36m|   category   | #instances   |\n",
…
